run/trash/kfold_metalearner/model.pt (torch_old, 6795 bytes, 10 tensors)

fc1.weight f4 [20, 44]
-0.2715605 -0.27657813 0.39598015 0.0091177495 -0.09520509 -0.14414848 -0.014081026 0.06697515
0.04294388 0.55782884 -0.06898869 -0.03544506 -0.03998794 0.3446191 -0.09111506 -0.4167171
-0.16266233 0.21915387 -0.035757605 0.27419177 0.026776414 -0.17458667 0.1951834 -0.02146143
-0.22553748 -0.19545291 -0.18127932 0.3072096 -0.13508081 0.62037957 -0.19214736 -0.5352066
0.09268289 -0.06534502 -0.12630408 -0.020730387 -0.39874285 0.23604985 -0.25626737 0.5058187
0.22512387 -0.003576146 -0.02536609 0.35730958 0.14797162 0.2079313 -0.45228216 -0.1998929
-0.015961893 -0.13155979 -0.117516965 -0.3019781 0.15193968 -0.0147795975 0.42382997 -0.17984524
-0.2740045 -0.20408425 0.4501976 -0.03430377 -0.17410572 -0.27629706 0.30574492 0.10293754
0.28314823 0.30762568 -0.32925358 0.11010777 0.31406322 -0.008951981 0.27495968 -0.15554877
0.5262839 -0.1774888 0.046620592 0.0037612226 -0.47980845 -0.11676534 0.35782835 0.2734945
0.32548916 -0.23662767 0.20270284 0.19481201 0.27183956 -0.10134727 -0.1429393 -0.022094551
-0.14932464 -0.53451633 -0.11422295 0.50974053 0.28789112 -0.29122964 0.25906402 -0.088668175
-0.019339329 0.16363308 -0.3594145 -0.08249067 -0.29410264 0.087077335 -0.021887997 -0.21134986
0.27741256 -0.17276098 0.023073243 -0.2995765 -0.25279927 -0.4151394 0.32858443 0.17458777
-0.27281603 -0.030608563 0.29241267 0.24846858 -0.15776882 -0.43375298 -0.36407444 -0.26845324
-0.020808894 0.2704452 0.25075325 -0.3686547 0.32924533 -0.10598335 0.15355508 -0.048314586
0.24165708 0.07234655 0.0119722765 0.12581967 -0.24269094 0.23361546 0.09770777 -0.3672491
0.5640353 0.045086514 0.1495038 -0.18067713 0.6581857 0.03406037 -0.14062735 -0.17358892
0.35373482 -0.24326824 0.5464077 -0.32258242 -0.44780856 -0.22176825 0.34096766 0.4039005
-0.4659058 0.010772467 0.08109449 -0.09942693 0.39107305 -0.07262517 -0.12560652 -0.18445219
0.5517858 -0.06961172 -0.26508212 -0.120281324 -0.038554538 -0.24862166 0.37050954 0.13429695
-0.34670842 -0.27609432 0.30633327 0.22764757 0.10190032 -0.1065775 -0.14586002 -0.08552195
0.26574847 0.016845256 -0.009106103 -0.31875664 -0.07091506 -0.078293286 -0.45374098 0.2372112
0.09412674 0.0746915 0.22279431 -0.34549624 -0.12360575 -0.15308397 -0.26598507 -0.061870433
-0.23195983 0.41073367 0.25435248 0.063892975 -0.033843033 0.1799818 -0.161268 -0.18029557
-0.03582222 -0.1309877 -0.059991747 0.10041998 0.09652751 -0.23903283 -0.07985791 -0.21454558
-0.094456896 -0.07415303 -0.10171492 0.33942443 0.16370012 0.18865687 0.08275487 -0.0619733
-0.29573393 0.2569907 0.34815463 -0.07732075 -0.032986093 0.8048992 0.2492319 0.13518508
0.024167543 -0.124206975 -0.62930346 -0.06958132 -0.25891843 0.09685285 -0.20370422 0.6762332
0.34907517 0.23566486 0.0961391 -0.20104194 -0.4969267 -0.16748698 -0.15767907 0.022135781
-0.25451198 0.41445822 0.4066057 0.40964875 0.1602023 -0.107090145 -0.44609722 -0.24950308
-0.43116623 0.12724186 -0.45916378 0.03606357 0.44936806 0.39200565 -0.2858767 0.18787819
00000000: fa09 8bbe a69b 8dbe e9bd ca3e 9d62 153c
00000010: e3fa c2bd a99b 13be 1bb4 66bc 442a 893d
00000020: ece5 2f3d dfcd 0e3f f149 8dbd d72e 11bd
00000030: 65ca 23bd ea71 b03e 889a babd f25b d5be
00000040: f490 26be df69 603e 9176 12bd dd62 8c3e
00000050: 365a db3c d9c6 32be 28de 473e e1cf afbc
00000060: 4cf3 66be cf24 48be 49a1 39be 944a 9d3e
00000070: a052 0abe 32d1 1e3f 47c2 44be 4d03 09bf
00000080: 87d0 bd3d 9cd3 85bd db55 01be c6d2 a9bc
00000090: 0628 ccbe 0db7 713e 7a35 83be 567d 013f
000000a0: df86 663e c65d 6abb 8ccc cfbc 48f1 b63e
000000b0: df85 173e f1eb 543e 8791 e7be b9b0 4cbe
000000c0: 84c2 82bc 9cb7 06be bcac f0bd e09c 9abe
000000d0: 1396 1b3e 2026 72bc 3e00 d93e 5a29 38be
000000e0: 514a 8cbe 76fb 50be 4d80 e63e 1c82 0cbd
000000f0: c548 32be cf76 8dbe 998a 9c3e ebd0 d23d
00000100: cef8 903e 1d81 9d3e ed93 a8be 2f80 e13d
00000110: e5cc a03e 54ab 12bc 84c7 8c3e 2d48 1fbe
00000120: 8bba 063f a0bf 35be 3cf5 3e3d d87e 763b
00000130: 74a9 f5be ab22 efbd 4735 b73e 7907 8c3e
00000140: 84a6 a63e 864e 72be 5591 4f3e cd7c 473e
00000150: 8e2e 8b3e 288f cfbd ae5e 12be a2ff b4bc
00000160: 8fe8 18be 10d6 08bf b9ed e9bd 5b7e 023f
00000170: 7766 933e 0d1c 95be 0aa4 843e a997 b5bd
00000180: 836d 9ebc 6e8f 273e 2d05 b8be def0 a8bd
00000190: 9f94 96be 9a55 b23d 754e b3bc 196c 58be
000001a0: 0509 8e3e 41e8 30be 1904 bd3c 1762 99be
000001b0: e86e 81be 278d d4be 383c a83e 23c7 323e
000001c0: 8bae 8bbe cfbe fabc 1db7 953e 8c6e 7e3e
000001d0: 268e 21be df14 debe f767 babe b472 89be
000001e0: 6a77 aabc cb77 8a3e bb62 803e 4fc0 bcbe
000001f0: d892 a83e cc0d d9bd 8b3d 1d3e 84e5 45bd
00000200: f474 773e 6e2a 943d 5e27 443c dfd6 003e
00000210: f983 78be e438 6f3e 031b c83d 1308 bcbe
00000220: 9e64 103f a3ac 383d 8617 193e 6d03 39be
00000230: dc7e 283f e382 0b3d 9e00 10be 4bc1 31be
00000240: bb1c b53e 4f1b 79be 60e1 0b3f 8629 a5be
00000250: 2a47 e5be 3717 63be 5093 ae3e 0ccc ce3e
00000260: 348b eebe 007f 303c de14 a63d 59a0 cbbd
00000270: ba3a c83e 81bc 94bd ff9e 00be 09e1 3cbe
00000280: d641 0d3f 9790 8ebd d8b8 87be 0e56 f6bd
00000290: 5deb 1dbd ad96 7ebe 6db3 bd3e 2485 093e
000002a0: c483 b1be 3c5c 8dbe b7d7 9c3e 721c 693e
000002b0: 1db1 d03d 4e45 dabd 545c 15be 2226 afbd
000002c0: 2f10 883e 10ff 893c c431 15bc 1234 a3be
000002d0: ea3b 91bd 3b58 a0bd bd50 e8be 7ee7 723e
000002e0: 85c5 c03d dbf7 983d 3124 643e e2e4 b0be
000002f0: 0325 fdbd 0bc2 1cbe 322f 88be da6b 7dbd
00000300: e186 6dbe af4b d23e 7d3a 823e 52da 823d
00000310: fe9e 0abd 264d 383e 7023 25be 679f 38be
00000320: 52ba 12bd a421 06be e8b9 75bd fea8 cd3d
00000330: 37b0 c53d 06c5 74be 8b8c a3bd d6b1 5bbe
00000340: 9e72 c1bd 8bdd 97bd e94f d0bd 0ac9 ad3e
00000350: 01a1 273e 442f 413e 637b a93d b7d7 7dbd
00000360: 706a 97be 4994 833e 5341 b23e 575a 9ebd
00000370: 6d1c 07bd e00d 4e3f a636 7f3e f56d 0a3e
00000380: 03fb c53c 3a60 febd 081a 21bf a780 8ebd
00000390: f590 84be c95a c63d d797 50be 9e1d 2d3f
000003a0: fbb9 b23e 2152 713e 94e4 c43d f0dd 4dbe
000003b0: 2d6d febe b581 2bbe 9f76 21be 1956 b53c
000003c0: 654f 82be de33 d43e 9f2e d03e 7bbd d13e
000003d0: 120c 243e 1452 dbbd db66 e4be bc7d 7fbe
000003e0: d2c1 dcbe b14b 023e 8417 ebbe 65b7 133d
000003f0: 9213 e63e f7b4 c83e 6e5e 92be 2463 403e

fc1.bias f4 [20]
0.07196114 0.0019047891 0.047093067 0.15571223 0.031916894 -0.053185727 -0.022825629 0.11030412
0.10549592 -0.0018307891 -0.0019491757 -0.018190837 -0.12147272 0.11789632 -0.02117666 -0.080783665
-0.09519334 -0.044369414 -0.07115032 0.2345378
00000000: 5d60 933d 1eaa f93a a9e4 403d 0773 1f3e
00000010: 4abb 023d 47d9 59bd d0fc babc 20e7 e13d
00000020: 3f0e d83d 17f7 efba 7c7b ffba f304 95bc
00000030: b0c6 f8bd a073 f13d ad7a adbc e871 a5bd
00000040: baf4 c2bd b4bc 35bd 42b7 91bd ad2a 703e

fc2.weight f4 [10, 20]
-0.1589618 0.5664894 -0.40845963 -0.44020936 0.19936539 -0.4914028 0.6043402 -0.036100432
-0.99019116 0.1713904 0.31720465 0.5961609 0.15352836 -0.1643606 -0.13281865 0.5033218
0.35655242 -0.28865695 0.6411296 -0.747458 -0.5372052 0.08376961 -0.75297046 -0.06478982
-0.056458388 1.0339166 -0.13181421 -0.4267795 -0.2994675 -0.6079252 0.10316612 -0.17508371
0.36722526 0.33238107 1.0800372 0.071848005 0.0077152043 0.39718935 -0.4680892 -0.80894876
0.4361384 -0.6778565 -0.016221447 0.19758286 -0.33831653 0.5930076 -0.5817407 0.6534894
0.10090908 -0.72198135 -0.052424166 -0.21929972 -0.35880715 0.42222118 -0.7899492 0.34420812
-0.22617507 0.3354409 0.11737421 -0.5727331 0.39973652 -0.3046981 0.7288491 -0.72299325
-0.119646065 0.45334548 0.18971996 0.2966203 -0.12212797 -0.26705524 -0.06418559 0.65014124
-0.75487226 -0.31348896 0.46089515 0.4967109 -0.3585193 0.26141372 -0.13221906 1.0819063
-0.35359633 0.52440166 0.27802157 0.9684829 -0.35463494 -0.12292356 -0.42326343 -0.7707766
0.5929191 0.6850173 -0.35330617 -0.44121546 0.42062894 -0.45697102 -0.074981384 0.32523984
0.60001236 -0.30364233 0.4030313 -0.09059194 -0.6658307 0.09185235 -0.41781834 -0.12943277
0.24069639 -0.3780728 0.5578783 0.69663036 0.32551032 -0.2578483 -0.23598985 -0.991634
-0.15073569 1.1765798 0.4874611 0.12633248 0.40283155 -0.32887018 0.11549881 0.5985258
-0.43637785 0.09552798 0.53607213 -0.62265426 -0.28560004 -1.069601 0.14457992 0.41461062
0.5832267 -0.73977697 -0.72522485 -0.23929442 1.148463 -0.38203323 0.41082484 -0.027148068
-0.1548094 0.49992028 0.40075612 -0.36546907 0.10620522 -0.46301562 -0.14999196 -0.033795368
0.71517175 -0.64700997 0.012082113 -0.76871115 0.085567854 0.33947298 0.91734576 -0.51344883
-0.70294446 0.18089242 0.26277924 -0.5588484 0.25154567 0.12285369 -0.86562145 -0.26688942
-0.18999436 0.7300949 0.18230906 0.88849914 0.29751542 -0.78322613 -0.12975648 0.32839155
0.14126277 -0.8793066 0.1924828 0.47249952 -0.3982943 0.23485073 -0.120757446 -0.36613008
-0.61779666 -0.27438557 -0.24726735 0.30390126 0.81861347 -0.006441124 -0.37228298 0.291314
-0.3206736 -0.120621525 0.6462158 -0.3030581 -0.011301588 0.8741405 -0.50041664 -0.09670273
0.59434193 0.11476619 -0.06157363 -0.500326 -0.9705733 0.21381734 -0.4838663 0.040480558
00000000: e2c6 22be 7305 113f 9f21 d1be 1f63 e1be
00000010: 7126 4c3e 2699 fbbe 0ab6 1a3f 0cde 13bd
00000020: 2b7d 7dbf f780 2f3e a668 a23e 009e 183f
00000030: 8a36 1d3e 254e 28be 9d01 08be b3d9 003f
00000040: 0a8e b63e d8ca 93be 1221 243f 6859 3fbf
00000050: 4886 09bf 678f ab3d acc2 40bf 86b0 84bd
00000060: e940 67bd 6157 843f 4efa 06be d882 dabe
00000070: ce53 99be fca0 1bbf c248 d33d 2549 33be
00000080: f304 bc3e da2d aa3e a93e 8a3f 0c25 933d
00000090: d3cf fc3b 675c cb3e 63a9 efbe 4417 4fbf
000000a0: 884d df3e 0188 2dbf d7e2 84bc 2953 4a3e
000000b0: d337 adbe 59cf 173f f5ec 14bf 154b 273f
000000c0: 6ba9 ce3d c5d3 38bf b9ba 56bd 1b90 60be
000000d0: 92b5 b7be 602d d83e 1c3a 4abf 0c3c b03e
000000e0: 709a 67be e9be ab3e e461 f03d a39e 12bf
000000f0: 44aa cc3e 6401 9cbe db95 3a3f 1616 39bf
00000100: ff08 f5bd e61c e83e f345 423e 9ede 973e
00000110: 3b1e fabd 77bb 88be bc73 83bd a86f 263f
00000120: 4f3f 41bf a081 a0be 73fa eb3e e450 fe3e
00000130: d78f b7be 05d8 853e 6f64 07be e87b 8a3f
00000140: 940a b5be 303f 063f d858 8e3e 7fee 773f
00000150: b692 b5be 59bf fbbd fcb5 d8be 9e51 45bf
00000160: 8cc9 173f 4b5d 2f3f 8ce4 b4be fee6 e1be
00000170: ad5c d73e 1bf8 e9be d78f 99bd d685 a63e
00000180: 699a 193f 0277 9bbe 1e5a ce3e 4488 b9bd
00000190: e173 2abf 161d bc3d 49ec d5be 068a 04be
000001a0: 1d79 763e c292 c1be 1dd1 0e3f 5e56 323f
000001b0: 4aa9 a63e b104 84be 53a7 71be badb 7dbf
000001c0: 755a 1abe 2b9a 963f 8094 f93e 4d5d 013e
000001d0: f03f ce3e ac61 a8be a48a ec3d fd38 193f
000001e0: eb6c dfbe 2ca4 c33d 063c 093f 4566 1fbf
000001f0: 2b3a 92be b0e8 88bf c20c 143e d847 d43e
00000200: 584e 153f 0662 3dbf 56a8 39bf 9909 75be
00000210: d600 933f dc99 c3be a257 d23e a065 debc
00000220: 5b86 1ebe 8df5 ff3e e82f cd3e c31e bbbe
00000230: 1f82 d93d 6210 edbe 7e97 19be 036d 0abd
00000240: 7f15 373f 72a2 25bf 0ef4 453c 41ca 44bf
00000250: 333e af3d 67cf ad3e 2cd7 6a3f 6271 03bf
00000260: 2bf4 33bf dd3b 393e 008b 863e b010 0fbf
00000270: 98ca 803e b79a fb3d 5e99 5dbf bba5 88be
00000280: e28d 42be 80e7 3a3f 3aaf 3a3e ae74 633f
00000290: f153 983e 8281 48bf e2de 04be f022 a83e
000002a0: 30a7 103e 3d1a 61bf 361a 453e 75eb f13e
000002b0: 3bed cbbe b67c 703e ae4f f7bd 6775 bbbe
000002c0: ec27 1ebf 447c 8cbe a733 7dbe f298 9b3e
000002d0: a790 513f 1010 d3bb e09b bebe 1c27 953e
000002e0: 552f a4be 6b08 f7bd 666e 253f 6e2a 9bbe
000002f0: 4c2a 39bc acc7 5f3f 4e1b 00bf 150c c6bd
00000300: cb26 183f 890a eb3d a134 7cbd 5d15 00bf
00000310: 7e77 78bf eff2 5a3e 53bd f7be f1ce 253d

fc2.bias f4 [10]
-0.09053269 -0.08965646 0.0028339853 0.0028438156 -0.039649036 0.097565144 -0.054073952 -0.021539502
0.12654819 0.06567076
00000000: 3469 b9bd ce9d b7bd 62ba 393b 4f5f 3a3b
00000010: 0767 22bd 3cd0 c73d a67c 5dbd 9c73 b0bc
00000020: d995 013e 647e 863d

fc3.weight f4 [10, 10]
-0.31600383 0.07979372 -0.2169909 0.042229325 0.00338009 0.3136414 -0.21605393 -0.30982772
-0.08477408 0.050958335 0.2316508 0.256398 0.24354157 0.09982461 -0.09037171 -0.06686413
-0.17293638 0.061838508 -0.21991764 0.10872108 0.20422325 0.2683405 -0.31169373 0.2594553
-0.19865197 -0.025819957 0.2886761 0.17136541 -0.10030833 0.1866782 -0.30757472 0.24722067
0.30696806 -0.014360428 0.05204451 -0.0742027 -0.20018888 -0.14303383 -0.021000504 -0.2587105
-0.25557977 0.034705102 -0.20576137 -0.17201084 -0.0027347207 -0.16665296 0.29271588 -0.11415805
-0.17583217 -0.08424525 -0.2580018 0.16290727 0.27170148 -0.18237217 -0.11755578 0.29512516
-0.22875732 0.08564699 -0.25765133 -0.2814571 0.0004785061 -0.18048307 0.17126444 -0.09781104
0.0031157136 -0.16509569 0.12994903 0.29299226 -0.04753843 -0.1951791 -0.30842447 0.30302945
0.13328263 0.13059768 0.053839147 0.15867832 0.11229569 0.15440634 0.19777378 0.04484111
0.272379 0.19663683 -0.009680331 -0.14124224 0.020962924 0.24628183 0.20032349 -0.12814322
-0.06601933 0.12555519 0.11914861 0.30112502 0.15355608 0.10074574 0.07308614 -0.2971904
-0.11650388 0.033468366 -0.2199878 -0.27706853
00000000: 41cb a1be e46a a33d dd32 5ebe a8f8 2c3d
00000010: 8084 5d3b 9b95 a03e 3e3d 5dbe bda1 9ebe
00000020: 089e adbd b0b9 503d de35 6d3e 9946 833e
00000030: f662 793e d870 cc3d ce14 b9bd 10f0 88bd
00000040: 3c16 31be 604a 7d3d 1732 61be 28a9 de3d
00000050: e61f 513e ed63 893e 5296 9fbe 53d7 843e
00000060: 6c6b 4bbe 6084 d3bc 5bcd 933e 6a7a 2f3e
00000070: 746e cdbd 9228 3f3e 6f7a 9dbe 6a27 7d3e
00000080: eb2a 9d3e 0048 6bbc a02c 553d 96f7 97bd
00000090: 50fe 4cbe 7677 12be 4009 acbc b475 84be
000000a0: 5adb 82be f026 0e3d 1cb3 52be 9c23 30be
000000b0: 0039 33bb 13a7 2abe dbde 953e b2cb e9bd
000000c0: 590d 34be c688 acbd d018 84be 2ad1 263e
000000d0: 751c 8b3e c5bf 3abe 16c1 f0bd a51a 973e
000000e0: 5c3f 6abe b067 af3d e0ea 83be 251b 90be
000000f0: 00e0 fa39 8ed0 38be f25f 2f3e 2851 c8bd
00000100: 0031 4c3b d80e 29be 5c11 053e 1503 963e
00000110: a8b7 42bd 08dd 47be d0e9 9dbe ad26 9b3e
00000120: 3e7b 083e 66bb 053e 7086 5c3d 927c 223e
00000130: 48fb e53d b21c 1e3e 3685 4a3e 50ab 373d
00000140: 4375 8b3e 2a5b 493e 409a 1ebc cea1 10be
00000150: 70ba ab3c 4e31 7c3e 9a21 4d3e fa37 03be
00000160: 2435 87bd 8a91 003e 3004 f43d 0f2d 9a3e
00000170: ce3d 1d3e c853 ce3d 30ae 953d 5729 98be
00000180: 9699 eebd 2016 093d 7b44 61be eddb 8dbe

fc3.bias f4 [10]
0.21338513 0.10755092 -0.255185 0.018768758 0.18623373 0.18217087 0.2887819 -0.12503742
0.14080727 -0.25651836
00000000: a281 5a3e a843 dc3d 9ca7 82be f0c0 993c
00000010: 0eb4 3e3e 008b 3a3e 39db 933e cf09 00be
00000020: c82f 103e 6056 83be

vfc1.weight f4 [8, 4]
-0.09473109 0.35897642 -0.30071244 0.556217 -0.48222697 -0.36796576 0.24490553 0.4345551
-0.008657873 -0.55507565 -0.028247297 -0.23872378 -0.2259436 -0.13069981 0.17012489 -0.16459632
-0.49587125 -0.3530554 -0.5922751 -0.706293 0.3417191 0.39509386 0.5343458 0.05597639
-0.29084495 -0.42528278 0.3521871 -0.42733356 0.5284299 -0.38350934 -0.65964097 -0.509229
00000000: 6002 c2bd c2cb b73e fbf6 99be 3d64 0e3f
00000010: 74e6 f6be 0266 bcbe 84c8 7a3e 027e de3e
00000020: c0d9 0dbc 7019 0ebf e066 e7bc 0274 74be
00000030: c25d 67be 2cd6 05be 3835 2e3e f08b 28be
00000040: d6e2 fdbe adc3 b4be 579f 17bf 9ecf 34bf
00000050: cef5 ae3e be49 ca3e e3ca 083f 8047 653d
00000060: a1e9 94be aabe d9be de51 b43e 77cb dabe
00000070: 2f47 073f 565b c4be 3bde 28bf d55c 02bf

vfc1.bias f4 [8]
0.0 0.0 0.0 0.0 0.0 0.0 0.0 0.0
00000000: 0000 0000 0000 0000 0000 0000 0000 0000
00000010: 0000 0000 0000 0000 0000 0000 0000 0000

vfc2.weight f4 [4, 8]
0.5759044 0.5337289 0.17258567 0.016358793 0.60628885 0.4267133 0.4186713 -0.48126644
0.113146484 0.64064986 -0.49810982 0.70445985 -0.46313882 -0.20778319 -0.033343732 0.18393946
0.21730423 -0.40442607 0.32364744 0.18713886 -0.07871348 -0.7037669 0.6998269 -0.26149708
-0.37690264 0.70019346 -0.35833216 0.4723931 0.4314825 -0.4602462 -0.57025206 -0.38441113
00000000: 796e 133f 75a2 083f 4cba 303e e002 863c
00000010: bf35 1b3f 2a7a da3e 165c d63e 8e68 f6be
00000020: 58b9 e73d a101 243f 4008 ffbe 7b57 343f
00000030: 8820 edbe 1ec5 54be 7093 08bd a05a 3c3e
00000040: 0085 5e3e ef10 cfbe 1eb5 a53e 54a1 3f3e
00000050: 8834 a1bd 112a 34bf db27 333f f2e2 85be
00000060: 62f9 c0be e13f 333f 5077 b7be 82dd f13e
00000070: 46eb dc3e 64a5 ebbe 0afc 11bf 89d1 c4be

vfc2.bias f4 [4]
0.0 0.0 0.0 0.0
00000000: 0000 0000 0000 0000 0000 0000 0000 0000
